homework/assignment6/lightning_logs/version_0/checkpoints/epoch=4-step=3000.ckpt (torch, 246453 bytes, 10 tensors)

conv1.weight f4 [6, 1, 5, 5]
-0.04512757 0.13433251 0.010066314 0.030550335 0.17283072 -0.035776276 0.04507066 -0.001275638
-0.014915723 0.09370698 -0.16149719 -0.09376526 0.11083193 -0.14060977 0.14118521 0.08988583
0.11366184 0.1925325 0.1693751 0.12533484 -0.08287938 -0.09531412 -0.16534889 0.14837514
-0.05061105 -0.059493113 -0.13133824 0.15841632 -0.15985154 -0.16282246 0.13939667 -0.19715323
0.056281418 0.13310178 -0.030448215 -0.047219817 0.112525076 -0.05552615 0.11752319 -0.07576238
0.028241105 0.16527343 0.14597678 0.16194919 0.19912744 0.093825854 -0.09044406 -0.031342536
-0.111828744 0.20292246 0.057919048 -0.19569774 -0.14226659 0.08265062 0.16111763 0.015796734
0.06968776 0.17469516 0.14984295 0.047622476 0.034109604 0.08057994 0.022958273 0.07610287
-0.19900145 0.1169929 -0.17972592 0.1993629 -0.17271641 -0.19065335 0.12937118 0.03674584
-0.042081855 0.16630563 -0.022780731 -0.06563405 0.00922217 0.11269339 -0.050753523 0.057070777
-0.11577864 -0.11026 -0.13632573 -0.17339174 -0.03476413 -0.09855541 0.1423183 -0.16810642
0.08485842 -0.010281681 0.20535363 0.061008062 0.020376023 -0.057569724 0.03909413 0.034144394
0.18625605 -0.19154537 0.1967771 -0.11321477 0.005032444 -0.06609406 0.020625314 -0.08500886
0.090842806 -0.117814556 -0.10185754 0.040085666 -0.14249773 -0.17171209 0.046314582 -0.10269336
-0.01200129 -0.14932954 -0.15623789 0.03765587 0.1388462 -0.16453907 0.09646127 0.13996542
0.17999902 0.055395342 -0.121830165 -0.054823272 -0.095167816 0.11904017 0.033206195 0.033512596
0.087114066 0.08039856 -0.08957615 -0.14741302 0.017722342 -0.0753994 -0.13778603 -0.19096339
0.079236686 0.048421845 -0.0406398 -0.07884926 0.023207601 -0.12733962 0.11196433 0.09133669
0.13330114 -0.07975467 0.13536234 -0.1975261 -0.1436686 -0.18410707
00000000: b0d7 38bd 768e 093e 2eed 243c b244 fa3c
00000010: 89fa 303e 258a 12bd 039c 383d 4f33 a7ba
00000020: 1461 74bc 72e9 bf3d 855f 25be 0008 c0bd
00000030: dafb e23d 02fc 0fbe db92 103e 1016 b83d
00000040: 8ac7 e83d 3d27 453e ab70 2d3e c757 003e
00000050: aabc a9bd 0d34 c3bd 3851 29be a7ef 173e
00000060: 884d 4fbd 0daf 73bd 887d 06be e337 223e
00000070: 1fb0 23be eeba 26be 00be 0e3e 89e2 49be
00000080: 5887 663d d54b 083e 896e f9bc 9169 41bd
00000090: 8c73 e63d 636f 63bd 00b0 f03d 4f29 9bbd
000000a0: e459 e73c 703d 293e f07a 153e 02d6 253e
000000b0: 10e8 4b3e c527 c03d bc3a b9bd 0861 00bd
000000c0: 7806 e5bd e8ca 4f3e 863c 6d3d fd64 48be
000000d0: 55ae 11be ba44 a93d 05fc 243e 2768 813c
000000e0: 75b8 8e3d 4ae3 323e 6e70 193e c90f 433d
000000f0: 83b6 0b3d 1807 a53d fd12 bc3c d2db 9b3d
00000100: 09c7 4bbe f999 ef3d 120a 38be ca25 4c3e
00000110: 92dc 30be a23a 43be e179 043e ce82 163d
00000120: 065e 2cbd 064c 2a3e a89e babc 256b 86bd
00000130: 9618 173c cbcb e63d ede2 4fbd 0cc3 693d
00000140: 5a1d edbd ffcf e1bd f998 0bbe 9b8d 31be
00000150: d564 0ebd 6bd7 c9bd e3bb 113e 1724 2cbe
00000160: 40ca ad3d 7f74 28bc 3948 523e 97e3 793d
00000170: 9eeb a63c 3bce 6bbd 2b21 203d feda 0b3d
00000180: e8b9 3e3e 7824 44be f07f 493e 25dd e7bd
00000190: 33e7 a43b 535c 87bd 6bf6 a83c 2019 aebd
000001a0: cb0b ba3d c248 f1bd b09a d0bd de30 243d
000001b0: edea 11be 4bd5 2fbe 5cb4 3d3d e550 d2bd
000001c0: 0fa1 44bc d8e9 18be d3fc 1fbe 0b3d 1a3d
000001d0: b32d 0e3e ee7c 28be 7c8d c53d 1853 0f3e
000001e0: aa51 383e 3ae6 623d 1882 f9bd 5e8e 60bd
000001f0: 58e7 c2bd 55cb f33d 3803 083d 8144 093d
00000200: dc68 b23d 00a8 a43d b373 b7bd 70f3 16be
00000210: 722e 913c 006b 9abd c817 0dbe e88b 43be
00000220: d846 a23d fc55 463d eb75 26bd b97b a1bd
00000230: de1d be3c 5165 02be 8e4d e53d bb0e bb3d
00000240: 1880 083e 6b56 a3bd 6d9c 0a3e 4844 4abe
00000250: dd1d 13be 9086 3cbe

conv1.bias f4 [6]
0.030221887 0.1446467 -0.17721647 -0.177097 0.14533882 0.117954634
00000000: e493 f73c 441e 143e 3c78 35be ea58 35be
00000010: b3d3 143e 3392 f13d

conv2.weight f4 [16, 6, 3, 3]
0.0031252147 0.07217473 -0.10698921 -0.11156371 0.04948106 -0.056517914 0.056119755 -0.1182577
-0.0041905176 0.036724173 -0.08051837 -0.12311626 -0.11504009 -0.074640095 -0.11248452 0.09729569
0.0021333776 -0.0005677387 0.106274866 0.060571026 0.04765049 -0.074521795 0.03452528 0.13392505
-0.09152594 -0.037167177 -0.07017711 0.018423544 -0.115319476 -0.12558863 -0.117878474 -0.08916685
-0.075606175 0.034155983 0.13838893 0.048858207 -0.014322849 0.02819448 0.010815969 -0.0815448
-0.091684334 0.12160143 -0.052518573 0.016598959 -0.028889755 -0.09507732 0.123994425 0.005196508
0.085497744 -0.07416895 0.046029303 -0.021750087 0.07466734 0.01697319 -0.07048464 0.021304082
-0.020021094 0.035628628 0.09499455 -0.111346625 0.03548788 0.07978545 0.004997668 0.050419394
-0.027347907 0.07847262 -0.11856259 -0.036355905 0.043795485 -0.13016519 -0.05210841 -0.006168872
-0.029337123 0.018529844 0.048766255 0.04094359 0.049523696 0.053671367 0.11999539 -0.046318684
0.09267627 -0.124418624 0.09119865 0.097065546 0.032284442 -0.05504662 -0.081187084 0.08215776
0.033219155 -0.003710597 -0.10905395 -0.06620148 -0.034110498 0.13607062 0.0578434 -0.044991817
-0.053944975 -0.090637 0.1266156 0.008500393 -0.042279262 -0.003520886 -0.06863243 0.06664986
0.0398957 -0.04610214 -0.09910698 0.09424326 -0.0063192933 -0.13130887 0.03715507 -0.07189898
-0.12113351 0.07141351 0.03954504 0.027411627 -0.022207549 -0.11371212 -0.043804865 -0.016330222
0.062858365 0.09623325 0.007933829 -0.00028789308 0.04293603 -0.13120668 0.12098551 0.09679506
-0.11387814 0.04649124 -0.06901186 0.045559693 0.085637696 0.09231574 -0.09006707 0.09865989
0.06567713 -0.08239547 -0.046678822 -0.11195724 -0.07275634 0.10210649 0.12253903 0.021332387
-0.11877686 0.05815203 -0.015476298 -0.102384105 -0.047017008 -0.107344106 -0.10294328 0.05108731
-0.067712106 0.09598963 -0.016357461 -0.09471736 0.109771915 0.035553865 -0.060733743 -0.0027728477
-0.017586974 -0.038675185 0.02210407 0.07574984 -0.06158143 -0.119836695 -0.097177364 -0.07032155
-0.06728328 -0.0731927 0.084264055 0.116135634 0.12114791 -0.077424824 0.050206523 -0.08681668
-0.13017537 -0.093369395 -0.0335665 0.0870355 0.12035486 0.0018292067 0.02391516 0.116699785
0.10104774 0.094207905 -0.10488373 0.03365083 0.10536615 -0.08698673 -0.104467586 0.035900448
0.12251108 -0.025599327 -0.050264724 -0.016992088 0.10249756 -0.03745107 0.018479321 -0.09894591
0.03483293 -0.022719922 0.03831885 0.02894258 -0.051410746 -0.109701164 -0.11709287 0.07190653
-0.023415823 -0.1340607 0.07120879 0.0115875425 0.021199772 -0.024432078 -0.1264845 0.040678788
-0.0092796255 -0.044399805 0.10182327 0.11625026 0.075214736 -0.021958118 -0.006880086 0.09703724
-0.057404146 0.063421816 0.013338813 -0.124928236 0.08319496 -0.106530026 -0.09545672 -0.030852113
0.02090205 0.058161974 -0.131991 0.006034732 -0.004897048 0.004083097 -0.029966425 -0.09520392
0.06312901 -0.103380196 -0.018208535 -0.10178261 -0.0036837966 -0.1312784 -0.021483643 -0.01308013
-0.052572213 0.019467345 -0.030580143 0.0632044 0.01929854 0.06663284 0.0790111 -0.11593507
00000000: 67d0 4c3b 58d0 933d 291d dbbd 847b e4bd
00000010: a7ac 4a3d 547f 67bd d4dd 653d 1831 f2bd
00000020: 9c50 89bb 166c 163d d1e6 a4bd 6124 fcbd
00000030: 249a ebbd e8dc 98bd 495e e6bd f642 c73d
00000040: 23d0 0b3b 4dd4 14ba a3a6 d93d 5319 783d
00000050: 292d 433d e29e 98bd 616a 0d3d a623 093e
00000060: f471 bbbd 9c3c 18bd 04b9 8fbd f9ec 963c
00000070: 9e2c ecbd 4e9a 00be 456a f1bd 1c9d b6bd
00000080: 69d7 9abd 25e7 0b3d d4b5 0d3e 8b1f 483d
00000090: 62aa 6abc 1cf8 e63c 7635 313c f600 a7bd
000000a0: ffc4 bbbd 2c0a f93d b71d 57bd 8afa 873c
000000b0: 35aa ecbc e6b7 c2bd caf0 fd3d 7847 aa3b
000000c0: 7119 af3d e4e5 97bd 3989 3c3d 3d2d b2bc
000000d0: 31eb 983d 5c0b 8b3c 405a 90bd e685 ae3c
000000e0: 4703 a4bc 53ef 113d 818c c23d b309 e4bd
000000f0: bd5b 113d 8e66 a33d 7ac3 a33b 9184 4e3d
00000100: b808 e0bc 41b6 a03d f1d0 f2bd eee9 14bd
00000110: e562 333d 064a 05be a16f 55bd 4024 cabb
00000120: 6854 f0bc e6cb 973c 20bf 473d 77b4 273d
00000130: 5cd9 4a3d 82d6 5b3d 25c0 f53d a9b8 3dbd
00000140: 0ecd bd3d 31cf febd 5cc6 ba3d 4dca c63d
00000150: b13c 043d 9178 61bd 6a45 a6bd 5442 a83d
00000160: cf10 083d 7d2d 73bb ad57 dfbd a494 87bd
00000170: 73b7 0bbd 1956 0b3e 33ed 6c3d 5749 38bd
00000180: 68f5 5cbd e49f b9bd 85a7 013e 3b45 0b3c
00000190: 052d 2dbd aabe 66bb 298f 8cbd b97f 883d
000001a0: ac69 233d 99d5 3cbd 9af8 cabd 9c02 c13d
000001b0: 1312 cfbb d575 06be ea2f 183d c63f 93bd
000001c0: d814 f8bd 3f41 923d fbf9 213d 598e e03c
000001d0: 9bec b5bc e6e1 e8bd bb6c 33bd f5c6 85bc
000001e0: e3bb 803d f015 c53d e4fc 013c 5bf0 96b9
000001f0: b1dd 2f3d 0b5b 06be 40c7 f73d 7d3c c63d
00000200: f138 e9bd 996d 3e3d 1756 8dbd cd9c 3a3d
00000210: d162 af3d 0910 bd3d 1675 b8bd 320e ca3d
00000220: bb81 863d f5be a8bd 4b32 3fbd d649 e5bd
00000230: 4701 95bd 351d d13d bef5 fa3d 42c1 ae3c
00000240: 4841 f3bd d330 6e3d 4c90 7dbc c2ae d1bd
00000250: e894 40bd 3ad7 dbbd edd3 d2bd ed40 513d
00000260: a5ac 8abd 3696 c43d 1500 86bc 2dfb c1bd
00000270: 19d0 e03d eea0 113d f2c3 78bd aab8 35bb
00000280: 8f12 90bc df69 1ebd 9813 b53c bb22 9b3d
00000290: cf3c 7cbd f16c f5bd ed04 c7bd bf04 90bd
000002a0: d1cb 89bd 0ee6 95bd a292 ac3d 85d8 ed3d
000002b0: 651c f83d e890 9ebd 5ba5 4d3d f2cc b1bd
000002c0: b14c 05be 7438 bfbd 077d 09bd ab3f b23d
000002d0: 9c7c f63d fec1 ef3a bae9 c33c 4c00 ef3d
000002e0: 1ef2 ce3d 13f0 c03d 48cd d6bd 74d5 093d
000002f0: 35ca d73d 1926 b2bd 1af3 d5bd 590c 133d
00000300: 17e7 fa3d aeb5 d1bc 62e2 4dbd fe32 8bbc
00000310: 3eea d13d 4b66 19bd f261 973c 27a4 cabd
00000320: f9ac 0e3d 211f babc 3af4 1c3d fd18 ed3c
00000330: 1394 52bd 01ab e0bd 63ce efbd bb43 933d
00000340: 8ad2 bfbc 3547 09be ead5 913d add9 3d3c
00000350: 25ab ad3c c825 c8bc 2785 01be cd9e 263d
00000360: 9209 18bc 92dc 35bd b888 d03d 9e14 ee3d
00000370: 2f0a 9a3d 83e1 b3bc 5872 e1bb 76bb c63d
00000380: 9c20 6bbd 4ce3 813d 098b 5a3c 60da ffbd
00000390: 1f62 aa3d 6a2c dabd d07e c3bd 92bd fcbc
000003a0: c73a ab3c 403b 6e3d a628 07be 00bf c53b
000003b0: 6b77 a0bb 80cb 853b 267c f5bc 46fa c2bd
000003c0: c849 813d ffb8 d3bd 112a 95bc 6773 d0bd
000003d0: da6b 71bb d86d 06be 77fe afbc 0b4e 56bc
000003e0: f655 57bd fb79 9f3c 3583 fabc 4f71 813d
000003f0: f917 9e3c cc76 883d 92d0 a13d 5e6f edbd

conv2.bias f4 [16]
0.13557419 0.08049652 0.10581645 0.10909617 -0.053251613 0.016935764 0.082681224 -0.102104664
-0.07370952 0.1312579 -0.07851768 -0.00919051 -0.07691048 -0.04608016 -0.106805 -0.12239524
00000000: f6d3 0a3e 5cdb a43d 4cb6 d83d d06d df3d
00000010: 5d1e 5abd dfbc 8a3c c654 a93d 401c d1bd
00000020: 04f5 96bd 7968 063e e1cd a0bd cb93 16bc
00000030: 3e83 9dbd 8dbe 3cbd 94bc dabd 5baa fabd

fc1.weight f4 [120, 400]
0.04632463 -0.0020186072 -0.018990148 0.034239624 0.013725777 0.026903464 -0.032890823 -0.031745177
0.031484462 0.010990562 0.04490578 0.025754314 -0.008729143 -0.043095157 -0.0236223 0.0328489
0.022939093 0.028071735 -0.019525466 0.048207603 0.031875607 0.0006123554 0.029451538 -0.014556596
-0.039943285 0.04349888 0.037539627 0.044319957 0.022675427 0.007050053 -0.027211592 0.020723036
0.027514106 -0.020098785 -0.047376413 -0.018930018 0.05056589 -0.01703874 -0.028862642 0.023993263
0.03815185 -0.03834308 -0.02418152 -0.037374996 0.035273295 0.015688285 0.047091197 -0.027917521
0.016905101 0.010432072 0.009615705 -0.0048863487 -2.4096185e-05 -0.04291863 -0.0100711705 -0.03386367
-0.0035779306 0.027526591 -0.012972538 0.04320501 -0.0025308891 0.004083216 -0.03691182 0.013431474
-0.03080297 0.02958363 -0.0039273608 -0.039817557 0.016884524 -0.003989069 0.00076274807 0.041294
0.025073733 0.005112255 0.02469619 -0.040370055 -0.0045547597 -0.044732768 -0.017266897 -0.0009900733
-0.0442858 -0.010424303 0.033319876 -0.040199384 -0.027507942 -0.018854164 0.039011955 0.04450581
0.0139910495 -0.03417897 -0.029142253 -0.02015944 0.038298525 -0.0070870104 -0.040856063 0.033657394
0.040340427 -0.019576017 -0.023178741 0.044570033 -0.013281292 -0.019075012 0.020908356 0.038831998
0.041003376 -0.01677954 0.03060891 -0.03448509 -0.0070669944 0.04503523 -0.021924108 0.026155038
-0.012313728 0.02878211 0.0064756 0.034855146 -0.045439567 -0.046728775 -0.030125024 0.02849895
0.0049244016 -0.047286775 0.031423822 0.016255274 0.010158524 0.015789958 -0.022474919 0.011403248
-0.022482188 -0.00073155074 -0.03766372 0.010488473 0.024391433 -0.011655911 0.0064521395 0.004751853
-0.03673814 0.04170354 0.029690132 -0.030384686 -0.020426784 0.0339061 0.026448634 -0.045980535
0.026758784 -0.0327997 -0.043121308 0.022555882 0.004604881 0.023678767 0.004237426 -0.011273626
-0.040838428 -0.046422716 -0.022909021 -0.018786917 0.04549354 -0.0460838 -0.024149617 0.022712372
-0.0032649788 -0.015154502 -0.046726122 -0.019774733 0.032736152 -0.032942485 0.0047010477 -0.013967433
0.039633825 -0.0053389645 0.02302616 0.006926127 0.037155893 0.0072816196 -0.049660355 0.049673922
0.0048227017 0.047241826 0.04320304 0.019740399 -0.029788341 0.03280262 -0.03478737 -0.046482075
0.012242172 0.017895265 -0.04053475 0.014490063 0.005509166 0.013797812 -0.02791047 0.04938398
0.027647302 0.040518958 -0.033952694 -0.00090640975 -0.024178416 -0.008393072 -0.029274844 -0.036679916
-0.046430003 -0.00026426592 -0.032449216 -0.001635259 -0.037529144 0.048357047 0.017240528 0.009390009
0.026007222 0.031053623 0.01673719 -0.029834796 -0.009561659 0.020164188 -0.0441226 0.0222567
0.041034896 0.055696502 -0.022062587 0.041939903 -0.018777156 -0.02264456 0.00040539654 0.033492196
-0.021079548 -0.02147777 -0.01363918 0.004570704 -0.041926324 0.036033675 0.008514726 -0.022483766
-0.031425074 0.025385888 -0.029323244 0.009302732 -0.02966848 -0.04000396 -0.011049037 -0.0040704976
-0.01108774 -0.029284077 -0.002150112 -0.009920419 0.003759301 0.0439985 -0.044415776 0.0030907628
-0.0021597198 0.025630007 -0.04226943 -0.0031108921 -0.011348271 0.035731975 -0.026852716 -0.009475783
00000000: e5be 3d3d 9c4a 04bb 3a91 9bbc d93e 0c3d
00000010: 15e2 603c a764 dc3c 87b8 06bd 3b07 02bd
00000020: daf5 003d c211 343c 20ef 373d b6fa d23c
00000030: ae04 0fbc 8c84 30bd 8e83 c1bc 918c 063d
00000040: c4ea bb3c b2f6 e53c dff3 9fbc 5675 453d
00000050: ff8f 023d 7a86 203a 5a44 f13c ca7e 6ebc
00000060: 929b 23bd e22b 323d 27c3 193d d888 353d
00000070: d1c1 b93c 2204 e73b d8ea debc 5bc3 a93c
00000080: 4365 e13c 35a6 a4bc c50d 42bd 2013 9bbc
00000090: 2e1e 4f3d d494 8bbc 5971 ecbc 858d c43c
000000a0: 1d45 1c3d a20d 1dbd 5318 c6bc 8616 19bd
000000b0: bb7a 103d b884 803c b3e2 403d 49b3 e4bc
000000c0: 917c 8a3c 48eb 2a3c 318b 1d3c aa1d a0bb
000000d0: 2a22 cab7 72cb 2fbd 8d01 25bc a2b4 0abd
000000e0: b77b 6abb 727f e13c c58a 54bc bdf7 303d
000000f0: 46dd 25bb 80cc 853b d930 17bd af0f 5c3c
00000100: 8356 fcbc 5e59 f23c 17b1 80bb bc17 23bd
00000110: 6a51 8a3c bcb6 82bb 28f3 473a e623 293d
00000120: 6e67 cd3c b484 a73b aa4f ca3c 125b 25bd
00000130: 1840 95bb b539 37bd 4f73 8dbc 59c5 81ba
00000140: 0765 35bd b2ca 2abc 6c7a 083d 1ca8 24bd
00000150: 5658 e1bc 0c74 9abc 00cb 1f3d b94b 363d
00000160: b73a 653c 3fff 0bbd bcbb eebc 6925 a5bc
00000170: eade 1c3d 273a e8bb b058 27bd 56dc 093d
00000180: 013c 253d e25d a0bc 58e1 bdbc 118f 363d
00000190: c799 59bc 3343 9cbc 0048 ab3c 4d0e 1f3d
000001a0: 28f3 273d 3f75 89bc 89bf fa3c 3d40 0dbd
000001b0: 3f92 e7bb dd76 383d 309a b3bc 1743 d63c
000001c0: 85bf 49bc 76c8 eb3c 4531 d43b 45c4 0e3d
000001d0: d71e 3abd ac66 3fbd c1c8 f6bc a176 e93c
000001e0: e05c a13b c7af 41bd 44b6 003d c829 853c
000001f0: f06f 263c f159 813c 521d b8bc b0d4 3a3c
00000200: 912c b8bc 8ac5 3fba 4645 1abd d8d7 2b3c
00000210: 8bd0 c73c 6ff8 3ebc 786c d33b 6fb5 9b3b
00000220: bb7a 16bd 55d1 2a3d b838 f33c 4ee9 f8bc
00000230: 1256 a7bc 1fe1 0a3d ceaa d83c 1656 3cbd
00000240: 3d35 db3c fa58 06bd f89f 30bd 1dc7 b83c
00000250: 8be4 963b f9f9 c13c 1bda 8a3b 04b5 38bc
00000260: 3246 27bd bf25 3ebd b3ab bbbc 05e7 99bc
00000270: 6f57 3a3d 5ec2 3cbd 6bd5 c5bc 4c0f ba3c
00000280: 41f9 55bb 974a 78bc e463 3fbd 9ffe a1bc
00000290: 5816 063d b3ee 06bd 3f0b 9a3b a9d7 64bc
000002a0: 1457 223d 7bf2 aebb 5ca1 bc3c 90f4 e23b
000002b0: c730 183d a79a ee3b a868 4bbd e276 4b3d
000002c0: c107 9e3b a580 413d acf5 303d 9eb6 a13c
000002d0: ae06 f4bc 0a5c 063d 347d 0ebd fd63 3ebd
000002e0: 6493 483c 1799 923c c407 26bd bb67 6d3c
000002f0: 3c86 b43b 3810 623c 7fa4 e4bc db46 4a3d
00000300: 987c e23c 35f7 253d fb11 0bbd 219c 6dba
00000310: d011 c6bc 1883 09bc ccd1 efbc ae3d 16bd
00000320: 632d 3ebd 2c8d 8ab9 78e9 04bd 3056 d6ba
00000330: 29b8 19bd 0a12 463d 023c 8d3c 8dd8 193c
00000340: 190d d53c 2b64 fe3c 6e1c 893c 1a68 f4bc
00000350: 81a8 1cbc 5e2f a53c e6b9 34bd af53 b63c
00000360: 3514 283d 0422 643d 99bc b4bc 2dc9 2b3d
00000370: 8dd2 99bc 1681 b9bc 678b d439 1d2f 093d
00000380: 04af acbc 26f2 afbc de76 5fbc d8c5 953b
00000390: f0ba 2bbd 0c98 133d 5981 0b3c e02f b8bc
000003a0: 94b7 00bd 11f6 cf3c 4d37 f0bc 7c6a 183c
000003b0: 500b f3bc 31db 23bd 0507 35bc cf61 85bb
000003c0: 5aa9 35bc 29e5 efbc e5e8 0cbb 4189 22bc
000003d0: 9b5e 763b c537 343d 51ed 35bd 658e 4a3b
000003e0: 168a 0dbb 05f6 d13c b622 2dbd 1ce0 4bbb
000003f0: 19ee 39bc b15b 123d 3afa dbbc 5140 1bbc

fc1.bias f4 [120]
0.015315312 0.0507582 -0.029825544 0.01952917 0.045300484 0.018821057 -0.039516717 0.02983528
-0.017266177 0.028704096 -0.012834225 -0.035443336 -0.026163245 -0.028831791 0.03214196 -0.04236943
-0.026599554 -0.032577105 0.042767484 0.022758624 -0.0039132093 0.024805564 0.00054805697 -0.010159025
-0.045815095 -0.03316207 -0.0049395314 0.023806863 -0.023974773 0.009256136 -0.00671638 -0.003681849
-0.015286655 0.0013325745 -0.01925225 0.0053093787 0.01824532 -0.0012058496 -0.024299407 0.009282499
-0.03160271 0.045492806 0.015392413 0.037741497 0.013147591 0.0028860383 -0.025107332 -0.041999716
-0.015744431 -0.023751026 0.037511677 0.0010586056 -0.04843577 0.02666259 0.034805123 -0.011065598
-0.015258821 -0.03437311 -0.0024038823 0.034740973 -0.023570905 0.019366933 0.023325987 -0.035862114
0.049227417 0.0061201327 -0.037085317 0.032136105 -0.009311716 -0.011952159 -0.014375198 -0.013213613
0.033939544 -0.00030140596 -0.03344109 0.0304429 -0.013452458 0.019362058 -0.0024692996 -0.017679764
-0.03342539 -0.04673495 -0.0075375396 0.030449333 -0.051021963 -0.0022516728 -0.018924752 -0.00946111
0.0080475025 -0.023051972 0.01816056 0.011508856 0.038178284 -0.014607218 0.0176557 0.01898569
-0.011024282 -0.017268648 -0.03170611 0.008336221 0.016532779 -0.02655281 0.048363306 0.012640145
0.045122694 0.046565622 -0.041788395 0.019463757 0.034266613 -0.017393649 -0.02366253 -0.030946458
-0.005439323 -0.0008412634 -0.032598343 0.029497225 -0.047933176 -0.030025313 0.02534649 -0.038090147
00000000: 13ed 7a3c d5e7 4f3d b354 f4bc a3fb 9f3c
00000010: 008d 393d 9e2e 9a3c 48dc 21bd 1e69 f43c
00000020: cc71 8dbc da24 eb3c a446 52bc 082d 11bd
00000030: 4d54 d6bc a630 ecbc 4aa7 033d 918b 2dbd
00000040: 4fe7 d9bc 926f 05bd f52c 2f3d 4b70 ba3c
00000050: 613a 80bb 0a35 cb3c 7bab 0f3a 0a72 26bc
00000060: 9ca8 3bbd f3d4 07bd cbdb a1bb 9c06 c33c
00000070: be66 c4bc 0ca7 173c 1415 dcbb 2d4b 71bb
00000080: e174 7abc c8a9 ae3a e5b6 9dbc 4cfa ad3b
00000090: 3677 953c 990d 9eba 8d0f c7bc 9f15 183c
000000a0: d871 01bd aa56 3a3d 7630 7c3c d496 1a3d
000000b0: fe68 573c b023 3d3b e4ad cdbc e507 2cbd
000000c0: 77fa 80bc 8391 c2bc d8a5 193d e9c0 8a3a
000000d0: 9664 46bd 816b da3c d18f 0e3d 7b4c 35bc
000000e0: 2200 7abc d1ca 0cbd 748a 1dbb 8d4c 0e3d
000000f0: c517 c1bc 67a7 9e3c 2416 bf3c 27e4 12bd
00000100: b0a2 493d 658b c83b c6e6 17bd 26a1 033d
00000110: 2b90 18bc fdd2 43bc f385 6bbc e97d 58bc
00000120: 3104 0b3d 0606 9eb9 86f9 08bd 6363 f93c
00000130: b367 5cbc 2e9d 9e3c f9d3 21bb 27d5 90bc
00000140: 10e9 08bd 266d 3fbd 77fd f6bb e170 f93c
00000150: 68fc 50bd cd90 13bb 1508 9bbc c602 1bbc
00000160: acd9 033c 7dd7 bcbc 74c5 943c a48f 3c3c
00000170: d560 1c3d 1d53 6fbc b0a2 903c e187 9b3c
00000180: 319f 34bc fb76 8dbc 44de 01bd a594 083c
00000190: c06f 873c 4785 d9bc 9a18 463d 9c18 4f3c
000001a0: 93d2 383d 98bb 3e3d 4f2a 2bbd 7572 9f3c
000001b0: 265b 0c3d 207d 8ebc ecd7 c1bc 6d83 fdbc
000001c0: 593c b2bb 3b88 5cba d785 05bd 2aa4 f13c
000001d0: 9455 44bd a5f7 f5bc 71a3 cf3c 6a04 1cbd

fc2.weight f4 [84, 120]
-0.017094722 -0.061496906 0.083852634 -0.031043917 -0.0033380506 0.037839603 -0.018543238 0.06029966
-0.0054925755 -0.031601585 0.01808687 0.07060578 -0.08536047 0.061010476 0.05506511 0.05443112
-0.053485315 -0.052257482 -0.018733175 -0.03285535 0.014099084 0.08644808 -0.051824514 -0.08688633
0.0024560646 -0.023336511 0.06398364 -0.07262785 0.047739238 0.047572672 0.077869095 0.015924511
0.087796405 0.06708795 0.037605 0.08709084 0.064484365 -0.06501603 0.05529533 0.07317756
0.069840625 0.02319769 0.057635278 -0.0676075 -0.077958226 -0.01849655 0.019677794 -0.06428883
0.07547455 0.024555711 0.066736646 0.08306241 -0.018745286 -0.0063432707 -0.08068419 0.087310195
0.06686252 0.03184656 0.078161485 0.061316174 -0.08921383 -0.0045795646 0.08553418 -0.00015243351
0.07011197 0.036515646 0.062637866 -0.033393227 -0.022006346 -0.08734124 0.07165483 -0.03423792
0.07482064 -0.05459673 -0.021913983 -0.043519508 0.03465548 -0.013401641 -0.033329424 -0.090997644
0.048253663 -0.07789107 -0.060822103 0.016249215 0.06208279 0.025179747 -0.04510333 -0.043402903
0.06257863 -0.0056783003 -0.062386043 0.006753146 0.083459 -0.09065175 -0.02604621 0.0055471607
-0.0657754 -0.056058645 -0.07027805 -0.03443369 -0.034449875 -0.00037149386 0.08015237 0.058505107
0.06266056 -0.017663663 -0.03662171 0.006949147 0.05054748 0.06237151 0.05426171 -0.049842745
-0.056578107 -0.027269267 0.0015138647 -0.056449797 -0.046744123 -0.03709878 0.06630308 -0.08621353
0.03421758 -0.073928796 -0.07690918 0.021992512 -0.07997259 0.06182101 0.087658435 -0.005957726
0.047295287 0.025841337 -0.029553361 0.07951194 0.075541735 0.031904362 -0.032500703 -0.024110451
-0.04116398 0.015761804 -0.04740364 -0.0834776 -0.0561699 -0.09026603 0.08387625 0.08182595
-0.05756034 -0.04019858 -0.085231006 -0.011022001 0.013607102 0.0583492 -0.02258037 -0.0015864149
0.040329054 -0.017784014 0.07634527 -0.05914386 0.060941115 0.043868676 0.020298988 -0.015986905
0.002469834 0.06460084 -0.00982514 0.0490786 0.013334893 -0.03568912 0.035515193 -0.020772433
0.08007378 0.05336538 -0.029029448 -0.06639392 0.00731984 -0.0012155635 -0.06564197 -0.038030878
-0.06560211 -0.06943734 0.005900357 -0.025877602 -0.07648532 0.0021236101 -0.08261645 0.019053072
0.026230901 0.08551872 -0.019428909 0.044969965 0.032136045 -0.07039215 -0.024767458 0.08384561
0.019772416 0.05749582 -0.026818939 0.014266715 -0.043117706 -0.06381853 -0.038306825 -0.03665753
0.057710484 -0.06417017 0.003427051 0.022415005 -0.034990806 -0.018237911 0.0706096 0.08990808
-0.08318124 -0.043967508 -0.010937449 0.054940537 0.0546229 -0.07255342 -0.09080128 0.04619646
-0.00024229288 0.028608909 -0.052476756 -0.0042986125 0.026796352 -0.06547682 0.053952523 -0.069905885
-0.071037814 0.041454002 0.038550753 -0.04991943 -0.090463854 -0.02822651 0.018467426 0.06906755
0.047710776 0.071172215 -0.057891745 -0.066797435 0.08056027 0.08801627 -0.03245182 0.06542705
-0.0072174883 -0.07116344 -0.0039459616 0.08048137 0.016047904 0.05547441 0.053607445 -0.00029079337
-0.037831403 -0.08281188 -0.042595234 0.068346955 -0.03579075 -0.06526951 -0.04465203 -0.080687486
00000000: 3b0a 8cbc 2ee4 7bbd eeba ab3d d04f febc
00000010: 32c3 5abb b3fd 1a3d fde7 97bc c7fc 763d
00000020: 10fb b3bb aa70 01bd ea2a 943c c399 903d
00000030: 78d1 aebd 1fe6 793d f48b 613d 2bf3 5e3d
00000040: 6b13 5bbd f10b 56bd 5176 99bc 5593 06bd
00000050: d8ff 663c b10b b13d f145 54bd 76f1 b1bd
00000060: edf5 203b 362c bfbc db09 833d e9bd 94bd
00000070: 388a 433d 90db 423d d579 9f3d 1f74 823c
00000080: 9ace b33d 6865 893d b307 1a3d af5c b23d
00000090: 6110 843d 2027 85bd 5b7d 623d 1ede 953d
000000a0: 9a08 8f3d 1509 be3c f812 6c3d cd75 8abd
000000b0: 90a8 9fbd 1486 97bc 5333 a13c dda9 83bd
000000c0: 6792 9a3d 0f29 c93c 39ad 883d a01c aa3d
000000d0: b78f 99bc 36db cfbb c13d a5bd b0cf b23d
000000e0: 38ef 883d 8a71 023d 2113 a03d ab26 7b3d
000000f0: beb5 b6bd 2c10 96bb 8b2c af3d 8fd6 1fb9
00000100: dd96 8f3d 6e91 153d 4848 803d 56c7 08bd
00000110: a746 b4bc f7df b2bd c4bf 923d 103d 0cbd
00000120: 903b 993d d2a0 5fbd f484 b3bc 8341 32bd
00000130: e8f2 0d3d 8e92 5bbc 6f84 08bd f95c babd
00000140: a2a5 453d 5a85 9fbd 9920 79bd 131d 853c
00000150: 864a 7e3d c245 ce3c 45be 38bd 3ec7 31bd
00000160: 3a29 803d 0911 babb 8288 7fbd 7f49 dd3b
00000170: 8dec aa3d a0a7 b9bd dd5e d5bc f5c4 b53b
00000180: 41b5 86bd c09d 65bd f0ed 8fbd 570a 0dbd
00000190: 501b 0dbd 10c5 c2b9 ed26 a43d 0da3 6f3d
000001a0: 2e54 803d 63b3 90bc a500 16bd acb5 e33b
000001b0: e00a 4f3d 4579 7f3d 8741 5e3d e827 4cbd
000001c0: 72be 67bd cc63 dfbc df6c c63a e737 67bd
000001d0: c476 3fbd e4f4 17bd e9c9 873d b890 b0bd
000001e0: bc27 0c3d fb67 97bd 8f82 9dbd a429 b43c
000001f0: abc8 a3bd 0738 7d3d 4486 b33d 0739 c3bb
00000200: b4b8 413d 36b1 d33c e419 f2bc 28d7 a23d
00000210: a0b5 9a3d 26ae 023d 751f 05bd 4883 c5bc
00000220: 909b 28bd e61e 813c 522a 42bd 4ef6 aabd
00000230: 6912 66bd 65dd b8bd 50c7 ab3d 5d94 a73d
00000240: 64c4 6bbd 44a7 24bd 988d aebd 9f95 34bc
00000250: 53f0 5e3c 92ff 6e3d 78fa b8bc 40ef cfba
00000260: 1430 253d c8af 91bc e95a 9c3d d540 72bd
00000270: 649d 793d a4af 333d 104a a63c f8f6 82bc
00000280: f0dc 213b 724d 843d a0f9 20bc a406 493d
00000290: 987a 5a3c c12e 12bd 6178 113d f32a aabc
000002a0: b9fd a33d a895 5a3d 2acf edbc 89f9 87bd
000002b0: 45db ef3b 8b53 9fba 4c6f 86bd 44c6 1bbd
000002c0: 665a 86bd 2a35 8ebd c857 c13b 44fd d3bc
000002d0: 56a4 9cbd 442c 0b3b d032 a9bd 3015 9c3c
000002e0: 30e2 d63c 7024 af3d 6029 9fbc 6d32 383d
000002f0: 16a1 033d c229 90bd 20e5 cabc 3fb7 ab3d
00000300: c3f9 a13c bd80 6b3d 64b3 dbbc f1be 693c
00000310: 319c 30bd 4ab3 82bd 9ee7 1cbd 3526 16bd
00000320: d461 6c3d a66b 83bd 6098 603b ac9f b73c
00000330: 8552 0fbd ac67 95bc c49b 903d ba21 b83d
00000340: ed5a aabd 4617 34bd fc32 33bc 5409 613d
00000350: 43bc 5f3d e396 94bd 06f6 b9bd 8038 3d3d
00000360: 0010 7eb9 3b5d ea3c def1 56bd 60db 8cbb
00000370: 0684 db3c b618 86bd 52fd 5c3d d12a 8fbd
00000380: 467c 91bd accb 293d 65e7 1d3d 5178 4cbd
00000390: 1d45 b9bd 483b e7bc 0049 973c 4a73 8d3d
000003a0: 606c 433d bdc2 913d e51f 6dbd 18cd 88bd
000003b0: c8fc a43d e041 b43d 33ec 04bd 9efe 853d
000003c0: ae80 ecbb 23be 91bd 204d 81bb 6bd3 a43d
000003d0: e576 833c 2339 633d 7b93 5b3d a075 98b9
000003e0: 1af5 1abd 4699 a9bd 5778 2ebd 7df9 8b3d
000003f0: 5299 12bd 05ac 85bd 0ce5 36bd 7b3f a5bd

fc2.bias f4 [84]
-0.0836155 -0.064486384 0.0036405958 -0.070466764 -0.03483433 0.06497636 0.08870895 0.08282465
-0.04482207 -0.06639856 0.07369567 0.035143893 -0.009085506 -0.02563066 -0.07247914 -0.08879013
-0.06735836 0.08032855 0.05819384 0.027486315 -0.08397367 0.03698006 0.02923819 0.022438727
-0.07541033 0.09092354 0.084767945 -0.07909696 0.06370512 0.046394702 -0.074002944 0.032103002
0.0632775 0.08566156 -0.051238082 -0.052872695 0.075285695 0.07907507 -0.0021132708 -0.035535723
-0.08531615 -0.06486583 -0.0058627822 -0.062727034 0.04553432 0.04354245 0.051524248 0.030319419
0.042004466 -0.024278976 0.0913272 -0.076873966 0.033114612 -0.02924413 -0.031015482 -0.040815663
-0.06373774 -0.057390854 -0.025329612 0.015256103 -0.07894874 0.038920555 0.023361396 -0.05596764
-0.020606818 -0.015562603 -0.058991786 0.042607002 0.065373145 -0.02551262 0.02205282 -0.032087248
0.0659518 -0.061888978 0.03865589 -0.01795555 0.0894637 0.00987983 -0.050744895 -0.07740877
-0.061341885 -0.020046063 -0.008489951 0.034928326
00000000: 9a3e abbd 7011 84bd 1097 6e3b e150 90bd
00000010: 71ae 0ebd 5312 853d 0aad b53d f89f a93d
00000020: 5997 37bd f8fb 87bd c1ed 963d 0bf3 0f3d
00000030: 60db 14bc 64f7 d1bc f16f 94bd 9ad7 b5bd
00000040: 2ef3 89bd 4b83 a43d aa5c 6e3d fb2a e13c
00000050: 63fa abbd 6778 173d ee84 ef3c 6cd1 b73c
00000060: bb70 9abd 1f36 ba3d d19a ad3d 96fd a1bd
00000070: d477 823d 5f08 3e3d db8e 97bd 707e 033d
00000080: a297 813d 546f af3d 06df 51bd 0a91 58bd
00000090: 632f 9a3d 1cf2 a13d cd7e 0abb e88d 11bd
000000a0: 3cba aebd 60d8 84bd 951c c0bb 0877 80bd
000000b0: 3282 3a3d 9159 323d 170b 533d 6e60 f83c
000000c0: e00c 2c3d b4e4 c6bc c109 bb3d 1970 9dbd
000000d0: 30a3 073d 6391 efbc 2e14 febc 532e 27bd
000000e0: ef88 82bd ac12 6bbd 0c80 cfbc bcf4 793c
000000f0: e1af a1bd 296b 1f3d 6660 bf3c 533e 65bd
00000100: a1cf a8bc 4afa 7ebc 5fa1 71bd ae84 2e3d
00000110: 5be2 853d d8ff d0bc 1ea8 b43c eb6d 03bd
00000120: bd11 873d 4c7f 7dbd a355 1e3d 8517 93bc
00000130: bf38 b73d 03df 213c e1d9 4fbd 7d88 9ebd
00000140: a141 7bbd a437 a4bc 6f19 0bbc 0111 0f3d

fc3.weight f4 [10, 84]
-0.07139929 -0.067779124 -0.06102941 0.020561717 -0.015342345 0.0454819 -0.03318756 0.03032066
0.007203976 0.047352586 0.08409594 -0.10568581 -0.035552364 -0.0763032 -0.058243398 0.010698706
0.07887082 -0.081410185 -0.032740664 0.0088649215 -0.10000039 0.047119584 -0.068621896 -0.06796512
-0.009920739 -0.029816262 0.06471771 0.091789044 -0.03879526 0.06626963 0.06718015 0.03236901
0.06379497 0.100070685 -0.01110972 -0.03763293 0.07792391 0.07664391 0.035652507 -0.044869207
0.07678314 -0.10936243 0.003286056 0.0051470622 -0.01937911 -0.0894193 0.08440231 0.05317382
0.015582827 0.04240836 -0.050501514 0.012452425 0.01906288 0.046047837 0.05636276 0.020633902
0.07017765 -0.021722324 -0.08355703 -0.021304706 0.010931755 0.077811755 0.059476808 -0.090165205
0.0920272 -0.09355623 0.08379021 -0.08558666 -0.0049304655 -0.05750274 -0.001179536 0.009528793
-0.11196387 0.00770887 -0.029914439 -0.08816021 -0.007480424 -0.07115924 0.09497242 -0.09603375
0.06263189 0.0027234536 0.0778941 -0.029990206 0.100864395 -0.1046648 0.09193359 -0.0033170085
0.1009478 -0.022547768 -0.004896714 -0.0150154205 0.020270819 0.001635265 0.10869302 0.042277064
0.104837105 -0.02619675 0.09683096 -0.02919349 0.05667441 0.038089093 0.031828005 0.0038915144
-0.034038454 -0.06297452 0.02611067 0.04330943 -0.05174165 -0.10943881 -0.03066761 -0.041742474
-0.0072182924 0.0152894035 -0.09231216 -0.031388655 0.06618181 -0.09153187 -0.036262944 0.009306111
-0.06902097 0.024650505 0.07247306 0.048325412 0.06676648 -0.06295909 -0.025500717 -0.044902638
0.018245207 -0.073613174 -0.079402074 -0.10843267 0.08038692 -0.06398352 0.070080236 -0.0017091813
-0.078670785 0.013077034 -0.058908165 -0.09167014 -0.10207642 0.07704335 -0.05528289 0.0066852863
0.08227894 -0.104828775 -0.07268484 -0.011279175 0.06605354 0.036691017 0.10309962 -0.037578825
-0.10571571 0.096250765 -0.075347036 -0.047856446 -0.088468425 0.06443172 -0.035365753 0.017973652
0.012435818 0.025145132 0.09140711 -0.008772311 0.071210206 -0.05018713 -0.03707211 -0.06715657
0.054180548 -0.042412505 -0.012735187 -0.10703245 0.0052808216 -0.02036637 -0.07223856 0.046415504
-0.017274264 0.101051815 -0.07032296 0.059184447 -0.10345269 -0.050922666 -0.078338265 0.06947001
-0.062138196 -0.09457397 0.038259048 0.02526335 0.072526515 0.08567804 -0.015883796 0.012578826
-0.059231497 0.09177873 -0.08358721 -0.09334322 0.10958953 0.07378281 0.10185597 -0.08132931
0.02882342 -0.10893728 0.050200343 0.044743545 -0.098115735 -0.026571428 0.018593475 0.028753094
0.05806626 -0.0021720594 0.0858682 0.10144382 -0.077310845 0.103036344 0.04577558 -0.10215222
0.026613507 0.07531356 -0.0030946832 0.049461227 0.06699696 0.04529292 -0.08941419 -0.08047536
-0.102108985 -0.010543388 0.09600742 -0.056668326 -0.01834582 0.10652327 -0.05597626 -0.06271051
0.009086696 0.0025969443 0.081543535 0.024399118 0.05565755 0.06482614 -0.034567837 -0.018156491
-0.07821285 -0.010211915 0.09231311 0.06403734 0.015346931 0.052185785 -0.010831388 0.038943287
-0.042678956 0.08255069 0.043125622 0.029386865 0.014061026 -0.001823212 0.06594046 0.08838021
00000000: ca39 92bd c8cf 8abd faf9 79bd 0c71 a83c
00000010: 765e 7bbc 3b4b 3a3d aeef 07bd 0863 f83c
00000020: 550f ec3b c9f4 413d 7e3a ac3d cd71 d8bd
00000030: 5b9f 11bd da44 9cbd a190 6ebd a049 2f3c
00000040: 0687 a13d 62ba a6bd 131b 06bd 2d3e 113c
00000050: 01cd ccbd 7700 413d a389 8cbd 4c31 8bbd
00000060: 988a 22bc 3c41 f4bc b88a 843d e5fb bb3d
00000070: c7e7 1ebd 5fb8 873d bf95 893d 5e95 043d
00000080: f0a6 823d dcf1 cc3d 8b05 36bc fd24 1abd
00000090: 9296 9f3d 7bf7 9c3d 5d08 123d c6c8 37bd
000000a0: 7b40 9d3d 69f9 dfbd df5a 573b b0a8 a83b
000000b0: f0c0 9ebc 7721 b7bd 1edb ac3d cbcc 593d
000000c0: 1d4f 7f3c 63b4 2d3d adda 4ebd 4205 4c3c
000000d0: c229 9c3c a89c 3c3d a3dc 663d 6e08 a93c
000000e0: 4db9 8f3d 04f3 b1bc f31f abbd 3587 aebc
000000f0: 1b1b 333c c55b 9f3d f49d 733d 89a8 b8bd
00000100: c278 bc3d 699a bfbd 349a ab3d 0f48 afbd
00000110: be8f a1bb fe87 6bbd a99a 9aba a81e 1c3c
00000120: 504d e5bd b09a fc3b 200f f5bc 578d b4bd
00000130: 581e f5bb f0bb 91bd e680 c23d 58ad c4bd
00000140: 2645 803d f87b 323b f186 9f3d 05ae f5bc
00000150: fe91 ce3d 805a d6bd ae47 bc3d 2b62 59bb
00000160: b8bd ce3d 19b6 b8bc 9d74 a0bb 3d03 76bc
00000170: fd0e a63c 6356 d63a 729a de3d b72a 2d3d
00000180: d6b4 d63d 919a d6bc 4f4f c63d 3027 efbc
00000190: 6d23 683d 4f03 1c3d 155e 023d c708 7f3b
000001a0: e86b 0bbd c9f8 80bd 0be6 d53c 3b65 313d
000001b0: 0def 53bd 7421 e0bd a43a fbbc 28fa 2abd
000001c0: 6d87 ecbb 6880 7a3c 280e bdbd 6491 00bd
000001d0: 548a 873d 1075 bbbd 7488 14bd a978 183c
000001e0: de5a 8dbd dbef c93c c16c 943d def0 453d
000001f0: ddbc 883d b2f0 80bd e1e6 d0bc d4eb 37bd
00000200: f976 953c 81c2 96bd 8e9d a2bd f311 debd
00000210: e6a1 a43d cb09 83bd 3a86 8f3d 9c06 e0ba
00000220: 261e a1bd 0e41 563c b049 71bd 8ebd bbbd
00000230: 710d d1bd e7c8 9d3d 5070 62bd 3f10 db3b
00000240: dc81 a83d 78b0 d6bd cadb 94bd 4acc 38bc
00000250: 1447 873d 5249 163d e525 d33d 41ec 19bd
00000260: 7a81 d8bd 1f1f c53d 8c4f 9abd 1f05 44bd
00000270: ef2e b5bd c7f4 833d aedb 10bd 7b3d 933c
00000280: 9abf 4b3c 2afd cd3c a733 bb3d bdb9 0fbc
00000290: a8d6 913d 0591 4dbd edd8 17bd 6289 89bd
000002a0: 6cec 5d3d bcb8 2dbd 3fa7 50bc d433 dbbd
000002b0: be0a ad3b 60d7 a6bc cff1 93bd 2f1e 3e3d
000002c0: c282 8dbc 41f4 ce3d 7c05 90bd 646b 723d
000002d0: 01df d3bd 4994 50bd d06f a0bd 4b46 8e3d
000002e0: 9f84 7ebd ffaf c1bd 85b5 1c3d 16f5 ce3c
000002f0: c888 943d f877 af3d bc1e 82bc 6c17 4e3c
00000300: ba9c 72bd 7df6 bb3d c52f abbd bb2a bfbd
00000310: 7a70 e03d 711b 973d dd99 d03d fb8f a6bd
00000320: 181f ec3c 821a dfbd e09e 4d3d 0245 373d
00000330: e7f0 c8bd 53ac d9bc 5851 983c 9c8b eb3c
00000340: e3d6 6d3d 1c59 0ebb abdb af3d c7c1 cf3d
00000350: 2655 9ebd b804 d33d 2d7f 3b3d 2f35 d1bd
00000360: 9204 da3c ff3d 9a3d 2bd0 4abb db97 4a3d
00000370: b435 893d 1285 393d c91e b7bd 44d0 a4bd
00000380: 841e d1bd 2dbe 2cbc 8a9f c43d 0c1d 68bd
00000390: f949 96bc df28 da3d 5d47 65bd 5e6e 80bd
000003a0: 5ee0 143c 7f31 2a3b 4c00 a73d a9e0 c73c
000003b0: 2cf9 633d 91c3 843d 0197 0dbd ecbc 94bc
000003c0: 0f2e a0bd e04f 27bc a80e bd3d 0226 833d
000003d0: b271 7b3c c3c0 553d 2276 31bc ff82 1f3d
000003e0: 21d0 2ebd 5610 a93d 7ea4 303d b9bc f03c
000003f0: 3860 663c d8f8 eeba cb0b 873d af00 b53d

fc3.bias f4 [10]
0.03328037 0.11139896 -0.00862257 0.063569084 0.015017067 -0.03256592 0.061847676 0.08343571
-0.020697733 0.08919077
00000000: ff50 083d 2325 e43d ae45 0dbc 8230 823d
00000010: 250a 763c d863 05bd fd53 7d3d 57e0 aa3d
00000020: 4b8e a9bc a7a9 b63d
